003 Code/clf.pth (torch, 2821 bytes, 2 tensors)

weight f4 [2, 128]
0	0x3d28270f	0.041052874
1	0x3d6dbe43	0.058042776
2	0xbe4e7cdb	-0.20164816
3	0xbd5d436a	-0.05401937
4	0xbd2bcce6	-0.041943453
5	0x3cf0a201	0.029374124
6	0xbafddf86	-0.0019368983
7	0x3d9cf8b8	0.07664627
8	0xbe04e850	-0.12979245
9	0xbdeb9b0a	-0.11504181
10	0x3e114def	0.14189886
11	0x3dfa989b	0.122361384
12	0x3df0a4a6	0.11750154
13	0x3d9a1e4b	0.07525309
14	0x3b9ee1a7	0.004848677
15	0x3d5b5038	0.0535433
16	0xbcfaf40b	-0.030633947
17	0x3d5241b8	0.051332206
18	0xbe82f8ce	-0.25580448
19	0x3bde7119	0.0067883846
20	0xbd548036	-0.051880084
21	0x3d893d65	0.06701163
22	0xbe17d7db	-0.14828436
23	0xbd7eb6f8	-0.06218621
24	0x3c94e7e3	0.018176978
25	0x3e2b37f7	0.16720568
26	0x3d9aba0a	0.075550154
27	0x3ce26517	0.027636094
28	0x3e4a8c92	0.19780186
29	0x3eb10939	0.3457735
30	0x3df681f8	0.12036508
31	0x3d205ad3	0.039149117
32	0x3e589889	0.21151938
33	0x3e9d4a58	0.30720782
34	0xbd8459ca	-0.064624384
35	0xbdcc17f7	-0.099655084
36	0xbe24fc07	-0.16111766
37	0x3e6c02ca	0.23047939
38	0x3e4a5ed7	0.19762741
39	0x3e3aaa12	0.18228939
40	0xbdc6f83a	-0.09715314
41	0xbd60fab0	-0.054926574
42	0x3d589498	0.052876085
43	0xbe32e607	-0.17470561
44	0xbdb40568	-0.08790094
45	0x3ecccdd3	0.4000078
46	0x3d8d8a61	0.06911159
47	0xbe57cf88	-0.2107526
48	0xbe650b13	-0.22367506
49	0xbd4c26e5	-0.04984178
50	0x3da7bf3c	0.08190772
51	0x3db53d1c	0.08849546
52	0x3daf462c	0.08558306
53	0x3e39932c	0.18122548
54	0x3e918862	0.28424364
55	0xbdd1315b	-0.10214492
56	0xbd80b789	-0.062850066
57	0xbda699a8	-0.08134776
58	0xbd86b79f	-0.06577992
59	0xbdf54efc	-0.11977956
60	0xbe7576b4	-0.23971063
61	0xbd1244d2	-0.035710163
62	0xbe2f83aa	-0.1714007
63	0xbe2f402d	-0.17114325
64	0x3e61421f	0.2199788
65	0x3e081236	0.13288197
66	0x3c4df856	0.012571415
67	0xbdbdb10e	-0.09262286
68	0xbe75f54e	-0.24019358
69	0xbe9c7f86	-0.30566043
70	0x3b3932e1	0.0028259086
71	0xbda27a3c	-0.079334706
72	0xbc60eb7c	-0.013728019
73	0xbbefd2c9	-0.0073188287
74	0x3de0db1e	0.10979293
75	0xbd929318	-0.07156962
76	0xbdf5d13f	-0.12002801
77	0xbe25231f	-0.16126679
78	0x3d54c84a	0.051948823
79	0xbba9aa75	-0.0051777908
80	0xbe1ee086	-0.15515336
81	0x3e236619	0.15956916
82	0x3dbc65bd	0.091990925
83	0xbc397cca	-0.011321256
84	0x3cb837ff	0.022487639
85	0x3d2cc4f1	0.042180005
86	0x3a97bbba	0.0011576333
87	0xbe0f56c2	-0.13997939
88	0x3e883f22	0.26610667
89	0xbd519a72	-0.05117268
90	0xbe00751e	-0.12544677
91	0xbd8dd51a	-0.069254115
92	0x3d2c2926	0.04203143
93	0x3e984872	0.2974277
94	0xbd4dd425	-0.050251145
95	0x3e3bacc4	0.18327624
96	0xbe22d990	-0.15903306
97	0xbe18f80f	-0.14938377
98	0x3e12feb0	0.14354968
99	0x3e6ca885	0.2311116
100	0xbe30b707	-0.1725732
101	0xbd2ca8b5	-0.04215308
102	0x3e2ebb93	0.17063741
103	0x3d9237b8	0.07139534
104	0x3ded962d	0.116009094
105	0x3d8f941b	0.07010671
106	0x3dc34ed7	0.09536522
107	0xbd763c05	-0.060115833
108	0xbe61c9a5	-0.22049578
109	0xbdb685b3	-0.0891222
110	0xbc394b91	-0.01130952
111	0x3e1ea7c3	0.15493684
112	0x3ce75448	0.02823843
113	0x3bc8b17b	0.006124673
114	0x3e0b76e7	0.13619576
115	0xbe14ceba	-0.14531985
116	0xbe7e03f5	-0.24806197
117	0x3e3ea973	0.18619327
118	0x3e22d7d3	0.15902643
119	0x3d90922d	0.07059131
120	0x3d812e38	0.06307644
121	0xbd64f210	-0.05589491
122	0x3dc3256d	0.09528623
123	0xbe7fbc62	-0.24974206
124	0x3b0222f3	0.0019857257
125	0x3d7d6c59	0.061870907
126	0xbe7dab1c	-0.24772304
127	0x3b61a2cb	0.0034429308
128	0x3d82d352	0.063879624
129	0x3d3d5b71	0.046229783
130	0x3e3ad780	0.18246269
131	0xbd71c62d	-0.059026886
132	0x3da24b81	0.079245575
133	0x3c65074a	0.013978789
134	0x3d293202	0.041307457
135	0xbe11a3af	-0.14222597
136	0x3e2e9a1c	0.17050976
137	0x3dc0d212	0.09415068
138	0xbd6533b1	-0.0559575
139	0xbe020c5c	-0.12700027
140	0xbd89aeba	-0.067227796
141	0xbe0bddec	-0.13658875
142	0x3da3c7f6	0.07997124
143	0x3d5c8a05	0.053842563
144	0x3d8acb1b	0.067770205
145	0x3be4c936	0.006981994
146	0x3e5286e6	0.20559272
147	0x3cb91a60	0.022595584
148	0xbd25970b	-0.04042725
149	0xbe022a63	-0.12711482
150	0x3e0eb5bb	0.13936512
151	0x3d5929d4	0.053018406
152	0xbddf2866	-0.10896377
153	0xbe70f90f	-0.23532508
154	0xbdeba431	-0.115059264
155	0xbc04fed8	-0.0081174
156	0xbd7a5bd5	-0.061122734
157	0xbe98ef7c	-0.29870212
158	0xbd8420e2	-0.064515844
159	0x3bbe9b11	0.005816825
160	0xbe2584a1	-0.16163875
161	0xbe4d5dc8	-0.20055306
162	0x3d4ce1a0	0.05001986
163	0x3d6c2db3	0.05766077
164	0x3e67da64	0.22641903
165	0xbe86d620	-0.2633524
166	0xbe646db9	-0.22307481
167	0xbd235a08	-0.039880782
168	0xbc1bf0d7	-0.00951787
169	0xbd0517e3	-0.032493483
170	0xbd8dd9b3	-0.069262885
171	0x3e13afb8	0.144225
172	0x3db13cde	0.086541876
173	0xbea0afa8	-0.31384015
174	0xbe00f9cc	-0.1259529
175	0x3ea930ce	0.33045048
176	0x3df82367	0.121161275
177	0x3d894082	0.06701757
178	0xbe3484d0	-0.17628789
179	0xbe581443	-0.21101479
180	0xbdc5e3b0	-0.096625686
181	0xbe6676d6	-0.2250627
182	0xbe9a1667	-0.30095217
183	0x3e133de5	0.1437908
184	0xbc7efd08	-0.015563257
185	0x3e71edc7	0.23625861
186	0x3d18f147	0.037339475
187	0x3d77db7b	0.060512047
188	0x3e62d467	0.22151338
189	0x3c8d19f0	0.017224282
190	0x3e28ec2c	0.16496342
191	0x3e4de712	0.20107678
192	0xbe67d38e	-0.22639295
193	0xbdff9f37	-0.1248154
194	0x3dba7690	0.09104645
195	0x3cba264a	0.022723336
196	0x3e8631ed	0.26209965
197	0x3e748a91	0.23880984
198	0xbde49501	-0.11161233
199	0xbd414583	-0.047185432
200	0xbdba5596	-0.090983555
201	0xbd98b107	-0.0745564
202	0xbe02a1b9	-0.12757005
203	0x3e10f21d	0.14154859
204	0x3e17863a	0.14797297
205	0x3d16635e	0.036715858
206	0x3d19b8e3	0.037529837
207	0x3d125722	0.035727628
208	0x3e39f46f	0.1815965
209	0xbcc9e78e	-0.024646547
210	0xbe3e7540	-0.18599415
211	0xbda10e96	-0.0786411
212	0xbb911377	-0.004427369
213	0xbd6de83f	-0.058082815
214	0x3b837db9	0.00401279
215	0x3e05cb0b	0.13065736
216	0xbe629a91	-0.22129275
217	0xbb875ecf	-0.004131175
218	0x3e588692	0.21145085
219	0xbcdb23ed	-0.02675053
220	0xbd855f7f	-0.06512355
221	0xbea3870d	-0.31938973
222	0xbd679a20	-0.05654347
223	0xbdcf4553	-0.101206444
224	0x3e9a6588	0.30155587
225	0x3dc94c14	0.09828964
226	0x3bf52443	0.0074811294
227	0xbebc21e6	-0.36744612
228	0x3e289721	0.16463901
229	0xbd7809ca	-0.06055621
230	0xbe1d3a8e	-0.15354368
231	0x3d746758	0.05966887
232	0xbd0f3534	-0.034962848
233	0xbd8567b9	-0.06513924
234	0xbd15f245	-0.036608
235	0x3de7297e	0.11287211
236	0x3e69664f	0.22792934
237	0x3e4b47ce	0.1985161
238	0xbaa1fb6b	-0.0012358254
239	0xbe215fcd	-0.15759201
240	0xbd8a6d3c	-0.06759116
241	0xbc836fd9	-0.016044544
242	0xbde80683	-0.11329367
243	0x3d920628	0.071300805
244	0x3e6770f9	0.2260169
245	0xbd8474f5	-0.0646762
246	0xbdfdf3d3	-0.124000214
247	0xbd1ee9d8	-0.03879723
248	0xbd4659fc	-0.04842566
249	0x3d4d6e01	0.050153736
250	0xbdc33e64	-0.095333844
251	0x3e53e947	0.20694457
252	0x3cbc4675	0.022982815
253	0x3d8b4d02	0.068017974
254	0x3e743cf5	0.23851378
255	0x3d044d78	0.032300442

bias f4 [2]
0	0xbd5be100	-0.053681374
1	0x3d7bfe2f	0.061521705
