003 Code/enc.pth (torch, 794971 bytes, 14 tensors)

net.0.weight f4 [512, 58]
00000000: 9d06 1b3d 333e fd3c d7bc 903e 0bc2 6bba
00000010: 5f02 30be 04f8 4c3c cdc8 d2bd 2aea 2ebd
00000020: dd56 2abd 04f3 59be 7fea 25bd 9277 863d
00000030: 7630 48bd eb73 2d3d db0e d7bd 634f 06bd
00000040: 3d12 c7bd 8347 913c 0b67 bf3c 47bc 49bc
00000050: fb6d 5cbd af47 443e 64ae 2bbe 1fa4 803d
00000060: 9f03 87be 21ef f4bc 1d5b 223d aef1 cabd
00000070: fc81 723c 7ec2 1a3d 822f 7abe c421 80be
00000080: 48d4 7cbd cce2 9abd b1fb a73d c291 883d
00000090: f7d7 c53d 1250 943e bfde 183e f252 67bd
000000a0: 5e7d e13b 8054 1b3e fbb1 843d c064 f9bc
000000b0: 2a1e fc3c 29b3 dabb c228 923c ab59 1a3b
000000c0: 69e9 3c3d 5ebe c43c 1b59 b2bb 6cc1 83b9
000000d0: e1c9 eb3c 6258 813d 638e 99bd 406f 90bc
000000e0: e964 f5bc d440 b7bc c3f0 83bb 00c8 aebb
000000f0: 53b9 343c 29bd 363b d667 b83c cb93 553c
00000100: eb23 6d3f 59f4 423c cf58 8dbc 15ae 82bd
00000110: dab2 803a 5a46 0f3c 173a 9b3c 9d23 ed3a
00000120: 8fe7 7cbc 79b6 5bbc a277 21bc a7b0 3b3b
00000130: ed15 4bbc cbbc 10bc 8f03 28bc 46ed 4dbc
00000140: 1745 4ebc cea2 a4bc 50b0 7f3c 28ef 1d3c
00000150: 5a33 5cbb 1eea 65bc 1962 003a 860d 9abc
00000160: a519 10bc ec56 173c cf63 a8bb 1967 c4bb
00000170: 8aed eabc 96a1 afbc 5b5c 19bc b3ea 343c
00000180: 9994 3b3c 258e cdbc 4eb9 97bc 33f4 bcbb
00000190: 8767 07bd f744 86bb 332c 3cbc c34c 49bc
000001a0: ce21 d0bc 74c1 8cbc 4f2d db3c 46bd dd3b
000001b0: 6a27 3dbc 2a75 a4ba eca2 07bb b8f6 ea3d
000001c0: 72f1 373c bc6d 46bb 4688 503c 7f2c d7bc
000001d0: c4b7 af3e 7d22 1abd 07a0 953e f621 073e
000001e0: 314a dc3c 5328 b5bd 6bdf bcbd a590 213c
000001f0: eadc 4bbd bfce 11be 4a21 8cbd 86f2 883e
00000200: 3b1d 013d b24f a7bc b80d 913d 83ba 063e
00000210: df81 2bbe e1e2 9abd 9854 74bd e1ef 77be
00000220: 7992 eabc a71d b13d b609 2fbd 8475 143e
00000230: 30b1 36bd a84c eabd 3de1 32bd 154d f1bd
00000240: c768 ee3c 9667 d73d 9c47 b0bc a7ee 27bd
00000250: 3835 84bd 5da6 d8bc c3c4 43bd 4311 95bd
00000260: 5f0f d0bd ae1b 83be 8d12 443e 28dd a93c
00000270: e5f6 a7bc 088a 0fbd 3e1f 423e b8a9 573c
00000280: d3a7 35be ea22 7a3d 2308 c43d 3283 ce3c
00000290: bb33 d63d c29d b33d 4fc6 b33c 45fa b33d
000002a0: 6bb6 773c 4bf0 8a3d d3b0 44bc 8cb8 01bd
000002b0: 1570 403d 1a89 a63c 0ca7 8dbc 4c1e 9f3c
000002c0: 0a51 5f3c ff00 233c 4902 81bb f5df d33b
000002d0: 5b1e 2e3c 707b 21bc fa1b a1bd 8467 c53c
000002e0: 4bf0 94bc 54ba b6bb b4f5 c63c 34c2 d3bc
000002f0: 4f3d 08bd 3337 1fbc 0900 a2bb 730e 40bc
00000300: 5e59 173c 9a65 00bb 2f44 5cbc 3dae 56bd
00000310: e753 0ebd ef22 5abd abae 09bd 0236 18bb
00000320: 06dd 0dbc 8d11 e03b b38d bc3d b0f4 a73b
00000330: d75b 1a3e 9b26 b63d 860e 043e 78da 933d
00000340: 13e7 8cbc f9bd b0bc 7e69 113c 9a08 88bf
00000350: 1ac7 2d3c 0d09 cfbd a69e 58bc 3df2 c63c
00000360: 0757 fabc e509 313c c906 ceba 077b a5bb
00000370: 35cd 81bc a394 ac3a b892 be3b 40d0 c8bc
00000380: 2219 ddbc 4a5e 5e3b 08e1 2cbd 87a7 f5bc
00000390: 70b6 85bc 488c 063d 1f6c 903a 45d4 a5bd
000003a0: 2454 7b3d 6461 cb3d 5779 d4bb bd7d 303b
000003b0: bdd1 9c3d 36db d03c 0d4a 09bc 3741 14bd
000003c0: 2d2d e03c 3f5c 06bd c4e1 a4bd 23f6 5cbc
000003d0: 3301 9fbc 690d 873d 73a7 1abd 3e6f fdbb
000003e0: 7ade e1bc 2d56 603d 9089 dcbb 53e0 71bd
000003f0: f0f5 6ebc 924b 93bc 331b a33b dd1a 7c3d
0.037848104 0.030913448 0.28269073 -0.0008993453 -0.17188405 0.012510303 -0.10292206 -0.042703785
-0.041586746 -0.2128411 -0.040506836 0.06565775 -0.04887434 0.042346876 -0.1050088 -0.032790553
-0.097202756 0.017734295 0.023364564 -0.012312955 -0.053815823 0.1916797 -0.16765743 0.062813036
-0.2636995 -0.029899182 0.039637674 -0.09909378 0.0148014985 0.03778314 -0.24432185 -0.2502576
-0.061725885 -0.07562789 0.08202303 0.06668426 0.09660333 0.2896734 0.14928721 -0.056475587
0.0068814 0.15168953 0.064792596 -0.03044355 0.030776102 -0.0066741896 0.0178417 0.0023551981
0.046121035 0.024016555 -0.005442751 -0.00025130378 0.028782787 0.06315686 -0.07497861 -0.017631173
-0.029955344 -0.02236978 -0.004026504 -0.0053339005 0.011030513 0.0027883744 0.02251045 0.013035725
0.9263293 0.011899077 -0.017254261 -0.0638086 0.0009818927 0.0087448 0.018948598 0.0018092279
-0.015436067 -0.013410204 -0.009855183 0.0028639229 -0.012395364 -0.008834074 -0.010254755 -0.012568777
-0.0125897145 -0.020097163 0.015606001 0.009639539 -0.0033599944 -0.014032869 0.000489743 -0.018805277
-0.008795177 0.009237032 -0.0051388512 -0.0059937355 -0.02867772 -0.021439355 -0.009360398 0.011042285
0.011449003 -0.025092194 -0.018520977 -0.0057664155 -0.033057716 -0.0040975767 -0.011485147 -0.012286368
-0.025406744 -0.01718209 0.026755003 0.006766948 -0.011545042 -0.0012547125 -0.0020696474 0.11472839
0.011226999 -0.003027781 0.012727803 -0.026266335 0.3431989 -0.037630547 0.29223654 0.13196549
0.026890846 -0.08845582 -0.09222301 0.009861146 -0.049771227 -0.14239024 -0.06842287 0.2674753
0.031522017 -0.020423744 0.07082695 0.13157086 -0.1674876 -0.07562805 -0.059650987 -0.242126
-0.028634297 0.08648234 -0.04273387 0.14497954 -0.044602573 -0.11440402 -0.043671835 -0.1178228
0.029102696 0.10517804 -0.021518521 -0.04099908 -0.06455463 -0.026446516 -0.04779507 -0.07278683
-0.10159182 -0.25607055 0.19147702 0.020735338 -0.02050347 -0.035043746 0.1895723 0.013163023
-0.17739801 0.061068453 0.095718645 0.025209043 0.104590856 0.08770324 0.021945147 0.087879695
0.015119175 0.067841135 -0.012005049 -0.03167014 0.04698189 0.020329047 -0.017291568 0.019423626
0.013630161 0.009948968 -0.00393704 0.0064659067 0.0106273545 -0.00985609 -0.07866664 0.024097212
-0.018180987 -0.0055764113 0.024287082 -0.02584944 -0.033261593 -0.00971775 -0.004943852 -0.011722195
0.009237615 -0.001959181 -0.013443991 -0.05241226 -0.034747984 -0.05325597 -0.033613842 -0.002322555
-0.008658653 0.0068380297 0.092067145 0.0051256046 0.15074097 0.08894082 0.12896165 0.07219404
-0.017200029 -0.021574961 0.008875249 -1.0627625 0.010606552 -0.10109148 -0.0132214185 0.02428543
-0.030559076 0.010805582 -0.0015718575 -0.0050500664 -0.01584492 0.0013166856 0.00581583 -0.024513364
-0.026989523 0.0033930712 -0.042206794 -0.02998711 -0.016322345 0.032848626 0.0011018551 -0.08097128
0.06135954 0.09930685 -0.0064841914 0.0026930415 0.07657192 0.025495153 -0.0083794715 -0.036195006
0.027365291 -0.032802816 -0.08050874 -0.013486418 -0.019409752 0.06594355 -0.03775735 -0.0077342084
-0.027571905 0.054769684 -0.006730266 -0.059051823 -0.014585003 -0.01798037 0.0049776076 0.061549056

net.0.bias f4 [512]
00000000: 0c77 69be fb3c f8be f4cf 63be 3631 583e
00000010: 9132 47be 5d21 b4be e5f6 03bf 2bbd 60bd
00000020: b111 66bd eee7 93bd bde9 abbe 4728 da3d
00000030: cefc c1be 76ec 393c b750 6bbe a05f c2bd
00000040: 12a0 f0bd 29af c4be 67ba afbe d8d7 753e
00000050: db5a e4bd e259 6d3d 873b 373d 9ca6 dfbd
00000060: 7843 273d 3ee0 ebbc d9cb 41be 0ee5 bebe
00000070: f86e 2cbf 7a4e 033e e4c1 9dbd 471f 19bd
00000080: 6f64 8ebe 8077 77be c3c3 dcbd 090d 9dbd
00000090: 18e6 6cbe 0902 c7bd cc77 dcbe 381b e7bc
000000a0: 044f 99bd 49a8 06be 7672 52be 8e44 173e
000000b0: 5920 d8be ca96 93bd f2ab b3bd 6160 cfbe
000000c0: 441f ffbe c44c 323f 372f a23b b2c0 d3be
000000d0: 4d5f 093e fd93 32be 7a20 b33c 536f 95be
000000e0: f5e9 553d 1fa8 073e 2134 213d 65a9 a2be
000000f0: d93f 4d3e 75f5 da3d 29dd 7ebd f6f9 09bf
00000100: 3b0f 09be b1e1 6e3d e762 c8be 197f 26bd
00000110: 9fac d0be 230d 1abd 9e1f a83d fb5d d63d
00000120: f6dd d1bd 06af 02bf 098c 6d3e 9e2c 7e3d
00000130: be3d 72be ba54 493d fd08 55bf adfc 7fbc
00000140: 172b 4cbe 3c86 04be 92df 35be 2241 cfbc
00000150: f7fd bb3e c0aa 1bbf f792 a9be 00c4 4ebc
00000160: a21f 3ebe 1489 d3bd 6b0a b93c 7c75 23be
00000170: 74ce 85be 7501 24be 05c7 f2bd 76e6 5dbd
00000180: c7e3 98bd ee18 a7be 7cc9 e5bd 365f fbbd
00000190: bd4f 2cbd ab72 8cbe f0f2 57be a4df 39be
000001a0: 03d6 50be f385 6ebe e21b 7b3d f0ad 6fbd
000001b0: c328 5c3d 30ee b2bd 5215 d2bd 7957 3cbe
000001c0: 76b4 5ebe ffcf f6bd 99f4 5cbb 7797 6ebe
000001d0: ed54 2fbe f5e8 6b3d 3b19 23be 2da6 073e
000001e0: fcd2 d1be 2952 3ebe 3be9 13be 077f 953e
000001f0: eb0a aabd c357 61bc 07f2 a23e 58c5 06bf
00000200: 489b d73d 41d0 a7be 1be1 73be f98c cc3d
00000210: d4f8 9cbe 399e 863d 27b3 62bf 9e39 febe
00000220: 6417 81be a357 e6bd 8a54 d5be f12c 13bf
00000230: 8b2d 0ebe ec0f ed3a 0541 aa3d e59e 17bf
00000240: d625 483d 17ee 8cbd 6c26 5dbe 79ca 59be
00000250: 5a60 fabd 9946 21be d874 0d3e 463c 103d
00000260: c766 fcbd ff7f 0f3e 978b 23bc 58d8 1cbe
00000270: 76bb 88be 6e9f 37be 1afb 153c cf03 833e
00000280: d5c3 0fbe 83c3 d63d 97cd e7bd 4fa9 16be
00000290: 4074 73be f7ea a4bd 8b3a 4f3e 0ce8 1ebe
000002a0: d037 9ebe 341e 2ebe 9ab9 f5bd c6ce 16be
000002b0: 7590 a43d bc12 503e da41 81be 3029 26be
000002c0: 0a4b 87be 6ab0 593b a70d c9be a221 cdbd
000002d0: 1c45 c0bd 2cc0 993e b351 09be f92d b9be
000002e0: b1ad d9be 8fb1 393e ea0d 97bd fa61 09be
000002f0: f971 0ebd eb56 09bf 226f 0cbf 2484 a8be
00000300: 5a32 243d 4586 00bf 1e09 2dbf cb30 4f3e
00000310: 0a2f 1abe 584b 27be e146 cabe 657d e8bd
00000320: 4e3f b2be 0c74 d9be 5c0e 983d b5a3 dcbe
00000330: 9ef1 1abd 6cb1 34be 6dbb 03bd 575b fd3d
00000340: f2aa 98bd 635d 433e 3ccb 87be 7bf3 7f3e
00000350: 1e36 86be 3427 8bbe f527 b9bd ca59 65bf
00000360: 22af 42be af26 11be 2389 36bd 96f9 e0bd
00000370: 7e8d 0bbe c3b7 e5be 15a7 d2be 35b5 0ebf
00000380: 3be3 0bbd 2969 9e3e 9049 38be 0e3f aebe
00000390: 98d6 9bbe 5307 8abe 676f 08be 732d 4a3d
000003a0: c23a 0cbe 9a52 60be 6fa2 f1be 5db9 603c
000003b0: dff9 f9be 2220 21bf 7835 233d cea9 46bf
000003c0: f2b7 4ebe c54c 19be ea20 90be 30ad cbbe
000003d0: f81a 64be da1b 11be d729 74be 84e3 0fbf
000003e0: cecf 7cbe f54c 7ebe c963 04bd 2f73 a53e
000003f0: 693c 0fbe 1731 72be 5571 ad3c 5178 aabe
-0.22799319 -0.48484024 -0.22247297 0.21112522 -0.19452883 -0.35181704 -0.51548606 -0.054867905
-0.056169216 -0.072219715 -0.33576766 0.106522135 -0.37888187 0.011347881 -0.22980009 -0.09490895
-0.11749281 -0.38414887 -0.343219 0.24008119 -0.11150142 0.057947047 0.044734504 -0.1092045
0.040835828 -0.02879345 -0.18925418 -0.3728413 -0.67356825 0.12822905 -0.07702997 -0.037383344
-0.27811 -0.2416668 -0.10779526 -0.07668502 -0.23134649 -0.09717185 -0.43060148 -0.028211221
-0.07485774 -0.13150133 -0.20551476 0.14772245 -0.4221218 -0.07206495 -0.0877303 -0.4050322
-0.4982854 0.69648385 0.004949476 -0.41357952 0.1341526 -0.17439266 0.021866072 -0.29186496
0.052225072 0.13247727 0.039356355 -0.31769863 0.20043887 0.106913485 -0.062222634 -0.53897035
-0.13384716 0.058320705 -0.39137957 -0.040648554 -0.407567 -0.037610184 0.082091555 0.10467144
-0.10247414 -0.51048315 0.2319795 0.06205427 -0.23656365 0.049153067 -0.8321684 -0.015624207
-0.19938312 -0.12941831 -0.17761067 -0.025299612 0.36717197 -0.6080742 -0.33119938 -0.012619972
-0.18566754 -0.1032888 0.022587975 -0.15962785 -0.26134074 -0.16016181 -0.11854366 -0.054174863
-0.0746532 -0.32636207 -0.11220071 -0.122740194 -0.04206823 -0.27431235 -0.21088767 -0.18151718
-0.20394139 -0.23293285 0.061305888 -0.05851549 0.05374981 -0.08736837 -0.10257973 -0.18392743
-0.21748528 -0.12051391 -0.0033715128 -0.23299967 -0.1712224 0.057595212 -0.15927593 0.13246985
-0.4098128 -0.18586029 -0.14444439 0.29198477 -0.08302864 -0.013753834 0.31825277 -0.5264487
0.105276644 -0.32776073 -0.2381634 0.09987826 -0.3065859 0.06573147 -0.88554615 -0.49653333
-0.25213158 -0.11247184 -0.4166606 -0.5749045 -0.13884561 0.001808641 0.08313183 -0.5922683
0.04886421 -0.068813495 -0.21596688 -0.21268643 -0.12225409 -0.15749587 0.13814104 0.03521373
-0.12324291 0.1401367 -0.009982011 -0.15316904 -0.2670552 -0.17931911 0.009154106 0.25588843
-0.14039548 0.1048651 -0.1131851 -0.14713024 -0.23774815 -0.080526285 0.20237176 -0.15518206
-0.30901957 -0.17003709 -0.11998291 -0.14727315 0.080353655 0.20319647 -0.25245553 -0.1622665
-0.26424438 0.0033216723 -0.39268228 -0.100161806 -0.093881816 0.30029428 -0.13410072 -0.36167887
-0.4251533 0.1813414 -0.07375701 -0.13416281 -0.03477666 -0.5364825 -0.54857075 -0.32913315
0.04008708 -0.5020488 -0.67592037 0.20233457 -0.15057006 -0.16337335 -0.395072 -0.11352042
-0.34813923 -0.4247135 0.07424614 -0.4309365 -0.03782808 -0.17645806 -0.032161165 0.12370937
-0.0745448 0.19078593 -0.26522243 0.24995224 -0.26213163 -0.27178347 -0.09040824 -0.8959013
-0.1901212 -0.14174913 -0.044564378 -0.10985105 -0.13628194 -0.44866762 -0.41143098 -0.5574525
-0.03415225 0.30939606 -0.17996812 -0.34032482 -0.3043716 -0.26958713 -0.13323747 0.04935975
-0.1369429 -0.2190651 -0.4719424 0.013716069 -0.4882345 -0.62939656 0.039845914 -0.7760285
-0.20187357 -0.14970692 -0.2815011 -0.3978057 -0.22275913 -0.14170781 -0.23844086 -0.56206536
-0.24688646 -0.24834044 -0.032321725 0.3231444 -0.13987888 -0.23651539 0.021172205 -0.3329492

net.2.weight f4 [512]
00000000: f26c b53e 2194 a93f 40b6 193f a515 e63f
00000010: 245f 423f 7c39 ff3e e9af 133f 8422 9b3f
00000020: 53f1 583f 15c2 673f 2a4b 863f e8ce dd3e
00000030: ced7 223f 8e69 6a3f d4e8 523f 4dcf a23f
00000040: bff5 5d3f 1672 8a3f 821e 393f c7d6 703f
00000050: 6e21 bb3e 2629 4c3f 66b2 0b3f 8c2a 113f
00000060: 9e0e 3c3f c8ec ff3e 069c d13f 6a5c 693f
00000070: c52f 463f 98b7 873f 99d4 1e3f 8ce9 443f
00000080: 37b2 fa3e 7cc2 183f 7c4b db3f 42ba 1b3f
00000090: c3a2 2a3f 87ba 283f 3bec c23e 6110 cb3e
000000a0: 7efc 753f f9aa 4b3f 9ce4 e03e 2818 3c3f
000000b0: 60ef 0a3f 8ceb 383f 5916 153f 3940 5a3f
000000c0: 9770 163f af76 6d3f 1efd f53e dc2c e33f
000000d0: 6be5 f43e 1538 543f 2919 233f 70b4 2c3f
000000e0: f258 443f 1e3d 513f ab89 dd3e 2d4c 333f
000000f0: 11f7 613f 45db 4e3f 95da 1f3f 301c 553f
00000100: 9626 023f a45d d53e 3913 e03e 9fc9 183f
00000110: ccbc 0b3f 3b71 1a3f fdcb a03e 3399 003f
00000120: 718c 263f 16ac 473f cb21 163f da60 433f
00000130: 6521 ff3e 25ec f93e 5858 853f 5fc3 323f
00000140: 55af 233f b2c3 8c3f 2bec b63e ef75 453f
00000150: 69da 613f 3ee5 663f 5180 fa3f ea1d 313f
00000160: b37e b93f 73d6 dd3e 3f62 023f 5b59 a43f
00000170: 8305 073f 26cb 873e 8021 553f df13 273f
00000180: 9eaa 0d3f b5a9 043f c10d 143f c61c 8d3f
00000190: 5209 c23e 91bc 1a3f a506 f63e a782 1d3f
000001a0: 9992 1e3f b40b 213f 447c b23e 9744 2d3f
000001b0: 47e6 293f e38c d73e f2c8 4b3f f8e2 233f
000001c0: 65e1 913f ea46 363f 899d 443f 4be8 2c3f
000001d0: cc9e 0e3f e79f ef3e 6b3e 373f fdc4 303f
000001e0: 0e71 903f d21e 553f 841c 1a3f e24d 3a3f
000001f0: 66cf 163f 7d64 403f f0cf 203f 0455 113f
00000200: 4e98 2a3f bb20 003f 0dd6 9e3f 14dd bb3e
00000210: 09d4 543f a28f 103f b7b6 dc3f 6846 113f
00000220: d064 c93e 95e2 5d3f 95bb 6d3f 4ed1 ab3f
00000230: fd4a 583f 4563 7b3f 0e63 283f 1d7e a93f
00000240: 0689 1f3f e064 333f a885 753f e3b4 253f
00000250: b7b2 833f 5244 403f a41a 173f 512d 003f
00000260: 34c4 343f 7e79 c53e 9f9a 1b3f dd00 5c3f
00000270: bcc5 db3e 1749 2a3f fd67 353f e9da 3b3f
00000280: be6a 4d3e 2d85 703f f3da b43e 0e45 fe3e
00000290: ac3c 4f3f cdcd 693f d5c3 163f a7eb 023f
000002a0: 67c6 183f 1f2e 273f d20c aa3f 04ce fe3e
000002b0: 6f29 3c3f 714f 6d3f e91c 823f ca62 273f
000002c0: a8a3 143f 5ef0 7a3f 0234 c33e 686c 103f
000002d0: bda9 363f 0913 ac3f 2de4 fe3e 8bb2 1b3f
000002e0: 30fa 673f b2b1 dc3e a0b7 213f deb7 e83e
000002f0: 7c5d 453f 9a06 a53f 48df 563f 4508 783f
00000300: 7e78 233f 6421 773f 8827 873f 2282 833f
00000310: 0190 f73e 1f8e 2e3f 5270 183f 817b f03e
00000320: 9a17 3e3f 5faf 923f ce50 153f f2fc 763f
00000330: 74e1 e33e c4da 353f a782 293f 0a12 143f
00000340: e80c 163f 97ee 293f 97eb 573f d47e 483f
00000350: ec1b 223f 3048 8c3f e913 fd3e df4a a73f
00000360: 8816 153f c48b 043f 249b a03f 295f 233f
00000370: a18c e53e 1271 8a3f 90f7 343f 64a7 ba3f
00000380: b5fc 2f3f 505c 203f be39 313f 7f41 883f
00000390: d007 053f 24e0 213f 2ab6 d13f 2a93 333f
000003a0: d71b 063f 2652 693f 9f93 153f 1776 343f
000003b0: 291c 603f 827d 053f ddd8 3f3f 06af 7d3f
000003c0: f695 fa3e 09bb 303f 4664 dc3f 984f 403f
000003d0: fe83 a23f c8db 643f 9ac1 e33e f928 5a3f
000003e0: 2a7d 173f 3978 0e3f ff2a 203f a896 2d3f
000003f0: 65f9 0a3f 95d7 233f 1891 083f 12cb 2f3f
0.3543468 1.324833 0.60043716 1.7975355 0.75926423 0.49848545 0.5769029 1.2119908
0.8474323 0.9053052 1.0491688 0.4332192 0.6361054 0.91567314 0.8238652 1.2719513
0.86703104 1.0816066 0.72312176 0.94077724 0.36548942 0.7975029 0.5456909 0.56705546
0.73459804 0.49985337 1.637574 0.9115664 0.7741664 1.0602903 0.6204315 0.76918864
0.48964092 0.5967176 1.7132411 0.6083108 0.66654605 0.6590962 0.38070855 0.39660934
0.960884 0.7955776 0.43924415 0.7347436 0.5427151 0.72234416 0.58237225 0.85254246
0.5876555 0.9275922 0.48044676 1.7748065 0.47831282 0.82898074 0.63710266 0.67462826
0.7669822 0.8173388 0.43269095 0.7003811 0.8826762 0.8080333 0.62442905 0.83246136
0.5084013 0.41673005 0.43764666 0.5968265 0.54584956 0.60329026 0.3140563 0.50233763
0.65058047 0.7799696 0.58645314 0.7631966 0.49830166 0.48812976 1.0417585 0.6982936
0.6393941 1.0997221 0.35727057 0.7713308 0.8822389 0.90193546 1.9570409 0.6918627
1.449179 0.43327674 0.5093116 1.2839769 0.52742785 0.26522177 0.8325424 0.65264696
0.55338466 0.5182145 0.57833487 1.1024406 0.37897736 0.6044398 0.48051944 0.61527485
0.6194244 0.6290848 0.34860432 0.67682785 0.66367 0.42099676 0.79603493 0.640182
1.139691 0.71201956 0.7680288 0.6754195 0.55711055 0.46801683 0.7157962 0.6905058
1.1284502 0.83250153 0.6019976 0.7277509 0.58910215 0.7515333 0.6281729 0.5677035
0.6663865 0.5004994 1.2409073 0.36692107 0.8313604 0.56469166 1.724326 0.56748056
0.39334726 0.8667386 0.9286435 1.342325 0.84489423 0.9819835 0.65776145 1.3241612
0.62318456 0.700758 0.9590707 0.64729136 1.0288914 0.7510425 0.59025025 0.5006915
0.7061188 0.38569254 0.6078281 0.8593882 0.42924297 0.66517776 0.708618 0.73380905
0.2006025 0.9395321 0.35323295 0.4966206 0.8095195 0.9132965 0.58892566 0.51140827
0.5967774 0.6530475 1.3285162 0.49766552 0.7350072 0.9269934 1.0165073 0.65385115
0.5806222 0.9802302 0.38125616 0.56415415 0.7135275 1.3443309 0.4978346 0.6081931
0.9061613 0.4310432 0.63170815 0.4545278 0.7709577 1.289264 0.8393445 0.9688762
0.6385573 0.96535325 1.0558939 1.0274088 0.48352054 0.6818561 0.5954639 0.46969226
0.74254763 1.1459769 0.58326423 0.96479714 0.44507945 0.71036935 0.66214985 0.57840025
0.58613443 0.66379684 0.84343857 0.78318524 0.63323855 1.095953 0.49429253 1.3069724
0.58237505 0.51775765 1.2547345 0.6381708 0.44833854 1.0815756 0.7069025 1.4582334
0.68744975 0.6264086 0.6922873 1.0644988 0.51965046 0.63232636 1.6383717 0.7014643
0.5238623 0.91140974 0.58428377 0.7049269 0.8754297 0.52144635 0.7494028 0.9909519
0.48942536 0.69035393 1.7218101 0.7512145 1.2696531 0.8939786 0.44483644 0.8521877
0.5917536 0.55652195 0.62565607 0.6780801 0.54286796 0.6400083 0.53346395 0.68669236

net.2.bias f4 [512]
00000000: c2ed 0ebe bc57 16be cc32 bf3e 2cc3 7bbd
00000010: 0d9a 093f 55bc ac3d d8f4 94bd 5ef7 133f
00000020: aa0f a53d 031c b13c 9e07 dc3c 21d6 833e
00000030: 3466 3fbb e415 d13e bde4 d5be 00c3 cebd
00000040: 6fd4 c03e 57e1 333f d6ff f43d d33d b63e
00000050: c1c3 113e 89f2 aabd a258 893e e4ef 8cbc
00000060: efe1 fb3e cb17 a73e 8229 72bd e7f5 f03e
00000070: 07d2 b6be d9de 0abf c134 683e 8460 c23c
00000080: eb45 6b3d aded 2dbe d8b3 f33d 2d5c 113f
00000090: f2c1 873e 68a5 a93e a5b2 073e 7056 793e
000000a0: 186c 1a3d e708 9e3e f6b1 833c 2341 d3bd
000000b0: db4a 823e 696b 81be 0693 59be 7e4f cabe
000000c0: 1f00 083e 0f5a a2be 5b1a 60bd a47c e2bd
000000d0: ad01 133f 384d 2e3e 909a a23d 9067 883e
000000e0: 9f24 a2be 7ff2 273f fa2c adbe 851f 323f
000000f0: 0520 523d 5e64 123f 294f 8f3e 270f abbe
00000100: 72e8 9b3e 131c 32bd c3bd 213e 58bc c63e
00000110: d428 49be 848d 253e 5c61 633e d923 e1be
00000120: 80fa e63e 7fc9 823e b1f8 343f 1e67 c6be
00000130: 229f a73e 47ac 013e 58ca 2cbd bea4 aebe
00000140: 2cd5 79be d5b5 843d f8c3 e13c 12d4 0ebf
00000150: c446 12be b016 723e f5e1 ebbd 64ed 6abe
00000160: 769f 83bd e5cb 5f3e 0d16 28be b1f4 f13e
00000170: c478 0ebe c6c9 293e 9e14 af3e 848f 28be
00000180: 6fec 5a3e 29a6 7a3e 3a8c 983e 6517 983d
00000190: 7d1f 1d3e 703f a43e 2b38 633c 0c1c 95bc
000001a0: a9fe 233e 53b3 c53d e74c b43d 28f7 89bd
000001b0: d181 3b3f 5490 bf3d 82ee d83d 91b7 813e
000001c0: b00b 953e 65cb 083e fc20 88be 07e6 053f
000001d0: 265f acbe b975 8dbe cfbd c33e aa92 473e
000001e0: d602 503e e4d3 353e f02c 00be 95f9 fa3e
000001f0: b1d7 b03e 0d8c bbbd d92a 223f ad71 5bbd
00000200: 3669 c5bd f84f c83c 31fc 903e d1da d7bd
00000210: 2a49 793e f9ef e83d dba2 d9bc f5a3 1e3e
00000220: 4678 68bd 15ca c93d dd4c e93e cf91 0fbe
00000230: c872 ba3d b79a b6be 1201 05bd 4978 07bd
00000240: 32d2 b73e 0bb7 13bd 3fb6 a93e 2b09 303e
00000250: 426d c43c 543f d83e 0087 00be 1b7b 4a3e
00000260: aac9 d13d b559 7dbe 7a6e bbbe c7e9 fa3e
00000270: dbe7 4a3d 00cb 1c3f f146 c7be 6db5 66be
00000280: 3b4c c1bd 68c8 853e b08f 953d 19bb 143e
00000290: 235a 863d 62e2 92be 01ba ebbe 3fe1 943c
000002a0: d0d9 e6be 9dd1 4b3e 58d0 a13e f9cf 953e
000002b0: 07a1 813c bcd2 3a3d 050b 60be 3e54 6c3e
000002c0: 8d4b 883d 2b61 a33e b928 c33d 77f3 0c3e
000002d0: 6cee e23e bece 81bd b950 08be 3f7e 2d3d
000002e0: 43fd abbd 96eb c7be 4f3f fcbd 3064 853e
000002f0: 4688 1a3e f181 003f 7f65 11be 327d f13c
00000300: 01fa 1a3f eabe fc3d c2b0 d83e 5a8b 0d3e
00000310: 38b3 12bf 1407 d7bd 3ac0 babe eec9 993e
00000320: b1ba b73e 2be2 7e3c 5eba 603e ffbf e53e
00000330: 6935 803e 417c a23e d991 0b3f 0f23 99be
00000340: c963 543d 7f48 1fbf 2f82 223e 4d67 03be
00000350: 2b8a fd3e d181 7c3d a0f7 f8bc 3a77 e83e
00000360: b45c 323e a063 983c f23f d63e 6170 ea3e
00000370: 666e 673e 5027 e63e afba 5abe eee5 f83e
00000380: a7f5 db3e 8946 dd3e cad8 9bbe 0018 1e3e
00000390: f9c9 ad3d 3666 a43e c1d7 ee3d efe5 0dbd
000003a0: 1e2d b53d 62db 20be e069 4e3e 31c3 573d
000003b0: 03d5 a33e 95c5 0cbf 0f1e a33e 7e2c cf3e
000003c0: fc19 583e efdd a03e bc7a f83e 0594 ec3e
000003d0: 80e7 98be 0f14 023f e62a 73bc f3f9 b6be
000003e0: 5b9e b23e 3d0a 1a3d 623d c03e 4b30 bebd
000003f0: 180e b23e 600f 453e 5ad8 ae3e e663 d63e
-0.13957885 -0.14681906 0.37343442 -0.061465427 0.5375069 0.08434359 -0.07273263 0.5779933
0.08059628 0.021619802 0.0268591 0.25749305 -0.0029205205 0.40837014 -0.41776076 -0.10095787
0.37662074 0.70265716 0.11962859 0.35594043 0.1423483 -0.08347041 0.26825434 -0.017204233
0.4919581 0.3263534 -0.059121616 0.4706261 -0.35707113 -0.5424629 0.22676374 0.023727663
0.057439726 -0.16985197 0.11899537 0.56781274 0.26515156 0.33134007 0.13251741 0.2434938
0.037700742 0.30866167 0.01607607 -0.10315158 0.25447735 -0.2527726 -0.21247491 -0.39513773
0.13281296 -0.31709334 -0.054712635 -0.110589296 0.5742443 0.17021644 0.07939637 0.26641512
-0.31668565 0.65604395 -0.33823377 0.69579345 0.051300067 0.571844 0.27990082 -0.33409998
0.3045078 -0.043483805 0.15795045 0.3881557 -0.19644481 0.16167265 0.22205108 -0.43972662
0.4511299 0.25544354 0.7069197 -0.38750547 0.32738596 0.12663375 -0.042185158 -0.34110063
-0.24397725 0.06479994 0.027559265 -0.55792344 -0.14284807 0.23641467 -0.11517707 -0.2294212
-0.06426899 0.21855123 -0.16414662 0.47256997 -0.13913256 0.16580877 0.34195417 -0.16460997
0.21379255 0.24477448 0.29794484 0.07426337 0.15344043 0.3207965 0.013868372 -0.01820185
0.16015114 0.09653344 0.088037305 -0.067365944 0.7324496 0.093537 0.10592367 0.25335363
0.2911048 0.13358839 -0.26587665 0.5230412 -0.33666342 -0.27628878 0.3823075 0.19489542
0.20313582 0.17756611 -0.12517142 0.4901854 0.3453956 -0.09157572 0.6334663 -0.053575207
-0.09639208 0.024452195 0.28317407 -0.10539783 0.24344316 0.11373896 -0.026566913 0.15492232
-0.056755327 0.09852997 0.45566455 -0.14020465 0.09103924 -0.35664913 -0.032471724 -0.033073697
0.35902554 -0.036063235 0.33146855 0.17190997 0.02397788 0.42235816 -0.12551498 0.19773524
0.102435425 -0.24741252 -0.36607724 0.49006483 0.04953752 0.61247253 -0.38921311 -0.22530146
-0.09438368 0.2612946 0.07302797 0.14524497 0.06560161 -0.2868834 -0.46040347 0.018173812
-0.45088053 0.1990418 0.31604266 0.29260233 0.015823854 0.04561113 -0.21879204 0.23079011
0.06655035 0.3191007 0.095292516 0.1376475 0.44322526 -0.06338261 -0.13312043 0.042356726
-0.08397915 -0.39046925 -0.12316763 0.26053 0.15091047 0.50198275 -0.14198874 0.029478643
0.60537726 0.123411015 0.42322356 0.1382269 -0.57304716 -0.10499397 -0.36474782 0.30036873
0.35884622 0.015556852 0.21946093 0.44873044 0.2504075 0.31735423 0.5451942 -0.2990956
0.051852975 -0.62219995 0.15869974 -0.12832375 0.49519476 0.06164724 -0.030391514 0.45403463
0.17418176 0.018602192 0.4184566 0.45788863 0.22600707 0.44951868 -0.21360277 0.48612922
0.42960855 0.43217877 -0.30438834 0.15438843 0.08485789 0.3210923 0.116622455 -0.03464311
0.08846496 -0.15708688 0.20157576 0.052676383 0.31998453 -0.54988986 0.3185887 0.40463632
0.21103662 0.31419322 0.4853114 0.4620668 -0.2986412 0.50811857 -0.014841771 -0.3573757
0.3488644 0.03760742 0.3754683 -0.09286555 0.34776378 0.19244146 0.34149438 0.4187309

net.2.running_mean f4 [512]
00000000: e1f2 e33d 2d31 253e 5da6 a83e 5626 af3e
00000010: 45db 0e3f 8dcd 2d3e c018 6c3b eee9 653e
00000020: 6308 423e d39c ba3e 1578 7f3d 80d6 ba3e
00000030: 2436 833e c8fc 333e 4bd4 643f d501 d33e
00000040: d69a 153f b433 a63d 386d a73e 2c2e 463f
00000050: 659a a03e 88d8 0e3f 5772 9c3e 8d2d 0d3f
00000060: b0fb 183f 2087 a63e 9010 1a3e 0099 f53e
00000070: 961c 613e 1879 363f 9c2b f43e f371 903e
00000080: 23ce bd3e 5bf9 8f3e 37df 3b3e 86e0 033f
00000090: 3a86 523e 9cc8 c13d 0c73 1e3e 0b30 123f
000000a0: 85f1 b63e 068e 7f3e f37c 563e fed6 b43e
000000b0: b6ef 963e 315d f03e 26ce b83e 2729 7d3e
000000c0: d65b a03e 7071 783f 1a44 1b3f 4fd6 083e
000000d0: 7958 f83e 1bc1 0e3e 9e46 c13e 7eff 463e
000000e0: 7fe1 d63e ccd0 f83e 615a 123f 7b9e 7c3f
000000f0: f47f 2e3f 2192 383f 77fc ab3e 9471 203f
00000100: f3f5 823e 6972 2a3f e6a9 573e e650 0b3f
00000110: 9547 b13e a8d4 bb3e 3d70 e73e a095 fd3e
00000120: 1d7a aa3e d913 c23d 4e15 263f f637 d23e
00000130: 9c64 833e 7678 c83e c832 9e3b 03ad 3d3f
00000140: 59f3 263f 62b2 7d3d 472a 0e3e eade 0c3f
00000150: fd5b 613f f5d7 0a3e 44d3 313e b020 033e
00000160: 4cbd f83d b830 863e d7cc 2b3f e772 333f
00000170: 17cd b03e 38ec 9a3e 5be4 4a3e 7962 bf3e
00000180: 048f 763e 375a 6d3e 2622 a83e 894c 803e
00000190: d8bd 873e b0a2 633e 0b0d b23e e853 9f3e
000001a0: f183 7f3f 010e 793e f573 9e3e c3d0 7b3e
000001b0: 84b6 273f b4a5 fa3e 7961 283f dfe5 1e3f
000001c0: 83ac c33e d6be 883e a3b4 0b3f a2cc a03e
000001d0: 8c86 613f 5eb1 5e3f d5a4 403f cca9 b23e
000001e0: 0bbb 273d 371c 963d e9d7 e63e b0e8 2a3f
000001f0: 5b01 703e a8ec b23e a854 833f 2382 a53e
00000200: 4bc2 e83e f5f3 9c3e 3b91 583e c5e8 983e
00000210: 28de 543e 5f5c d63e 37ea c93b 1418 e43e
00000220: 1dfb e03e a18b 603e def3 163f 892f a33e
00000230: 3efe f83d 9d51 cb3e bd74 e33e 9bbe 753d
00000240: 46c1 823e afa8 063f 5179 633e 9de9 533e
00000250: 666a 353e d0a3 273e 689d 083f fbf1 623f
00000260: 2b98 093f d0e2 f43e 1c32 1e3f d1ab ab3e
00000270: e91c 4d3e e1ad 363f 5840 f83e b380 593f
00000280: 9eff 293f 7ca2 323f 8498 913e 3270 7d3f
00000290: 676d cb3e 81f2 c93e d88c 0c3f 74a6 243f
000002a0: b15c f63d f628 583e bb56 633e 27cc a63e
000002b0: 6d1d e43e 0e0f da3e 8be9 b93d 684a f03e
000002c0: df0f 9f3e 14a1 2c3f 212d fb3d b5af 2f3e
000002d0: e84c 903e e445 793f bb16 333f 0f23 893e
000002e0: f265 dc3e 56ce 163f efbd 8b3e a376 813e
000002f0: ae60 293f 0f60 c73d 7131 253e fe21 823c
00000300: 0bc5 ff3e 5731 253f 9942 023e 5a7f 763f
00000310: b67d 523f 7960 ee3e 1674 5e3e 9327 a83e
00000320: 966c 6b3e 544c 9c3e 8c09 6a3f 2fb6 143e
00000330: 648f bc3e 9b26 503e 11f3 b63e 8ea2 d53e
00000340: 95f0 b83e 2c5a 173f d6da cc3e 1180 863f
00000350: e62d 903e 6030 f93e 7704 2d3f a491 bf3e
00000360: 8bca 1e3e 0682 023f d4c3 093f 5c57 203f
00000370: 4c9a 1b3f 2ccd 0e3e 1416 823e 3596 193d
00000380: cf5b 133f c4b1 1e3f 29fe fe3d 423d 163e
00000390: 99ad 543e bcee 8b3e 47ad 893e c934 a53e
000003a0: fe03 b43e ec08 a43e 3aa0 a83e 9622 103f
000003b0: 493b 053e 2740 403f c769 613e 33bc 703e
000003c0: 8fc2 a63e cc0d 153e e93b c13c fe91 353e
000003d0: af7c 993e 5634 4c3f a626 923e c417 c73d
000003e0: 30d2 dc3e 2391 853e 6122 9a3e 0611 4a3f
000003f0: bf84 ab3e e22d 1d3f eb3a 913e 5392 163f
0.1113031 0.1613204 0.32939425 0.34208935 0.5580333 0.16972943 0.0036025494 0.22452518
0.18948512 0.36447772 0.06237038 0.36491776 0.25627244 0.17576897 0.89386433 0.41212335
0.58439386 0.0811533 0.32700515 0.774142 0.31367794 0.5579915 0.30555984 0.5514763
0.59759045 0.32524967 0.1504538 0.47968292 0.21983561 0.71278524 0.4768952 0.28211936
0.37071332 0.2811993 0.18346868 0.5151447 0.20559016 0.09462091 0.15473574 0.5710456
0.3573114 0.24956521 0.20946102 0.35320276 0.2947976 0.469461 0.3609478 0.2472273
0.31320065 0.9704809 0.6065079 0.13363002 0.48505 0.13940851 0.3774919 0.194334
0.41968915 0.485968 0.5716916 0.9867932 0.6816399 0.72097975 0.33591053 0.62673306
0.2557827 0.66580826 0.21060905 0.54420316 0.34624925 0.3668568 0.4520282 0.49528217
0.3329629 0.09476442 0.6487626 0.4105832 0.25662696 0.39154404 0.004827831 0.7409212
0.6521507 0.061937697 0.13883315 0.5502764 0.8803099 0.13558944 0.17365748 0.12805438
0.121454805 0.26209044 0.67109436 0.700972 0.3453147 0.30258346 0.19813673 0.37379816
0.24077994 0.23178945 0.32838553 0.25058392 0.26512027 0.22230029 0.34775576 0.31118703
0.998107 0.24321748 0.30947843 0.24591355 0.6551287 0.48954546 0.6577373 0.62069505
0.38217553 0.26708096 0.54572505 0.31406122 0.8809593 0.8698939 0.75251514 0.3489517
0.040949862 0.073296 0.450866 0.667613 0.23438017 0.3494618 1.026021 0.3232585
0.45460734 0.30654874 0.21149151 0.2986509 0.20787871 0.4186735 0.006161954 0.4454962
0.43941584 0.21928264 0.5896586 0.31872204 0.12157868 0.39710703 0.44425002 0.05999623
0.2553808 0.5260114 0.22214247 0.20694585 0.17716369 0.16371083 0.5336518 0.8865048
0.53747815 0.47829294 0.6179521 0.33529523 0.2003056 0.7135907 0.4848659 0.84962004
0.66405666 0.6977918 0.28436673 0.9899932 0.39731905 0.39442828 0.5490241 0.6431649
0.12029398 0.21109375 0.22201054 0.3257763 0.445537 0.4258961 0.09077748 0.46931767
0.31066796 0.67433286 0.12264467 0.1715687 0.28183675 0.9737227 0.6995656 0.2678456
0.43046528 0.58908594 0.27293345 0.25285825 0.66163146 0.097351186 0.16132142 0.01588535
0.4995502 0.6452841 0.12720717 0.96288073 0.8222307 0.46557978 0.21723971 0.32842693
0.22990641 0.30526984 0.9142082 0.14522623 0.36828148 0.20327227 0.3573232 0.41725582
0.3612105 0.59121966 0.4001071 1.0507833 0.28160018 0.4866972 0.6758494 0.37415802
0.15506952 0.5097965 0.53814435 0.626333 0.60782313 0.13945454 0.2540747 0.037496764
0.57561964 0.6199 0.12450821 0.14671806 0.20769347 0.27330577 0.26890013 0.32266834
0.35159296 0.32038057 0.32934743 0.56302774 0.13010897 0.7509789 0.22013007 0.23509292
0.3257031 0.14556044 0.023588138 0.17731473 0.2997794 0.7976736 0.2854511 0.0972133
0.4312911 0.26087293 0.30104354 0.78932226 0.33499715 0.61398137 0.28365263 0.58817023

net.2.running_var f4 [512]
00000000: 5e9e d73d d2dc 3a3d b4b0 143f 0b82 1c3e
00000010: 3fee 013f d2ec ff3e e029 a23a 85b4 f73d
00000020: c50e de3d 72b3 403e 2603 a43c 9b1d a03e
00000030: 5f8c 353e e16f 343d 2b23 723f 058e 7a3e
00000040: c810 233f ea80 1b3d 511d 083f b340 eb3f
00000050: 5494 a93e 4d69 013f f066 7e3e abb2 043f
00000060: efdf a83f 5736 f73e 7711 433d 2ba8 5e3e
00000070: 32af 6d3e aaca 153f a62b 263f 063f eb3d
00000080: 417e f23e 06b6 343e 73a9 f63d ac45 1f3f
00000090: 46b8 143e 59db f53d 14b5 803e b639 f63e
000000a0: a9e2 633e c86f 453e 54b1 a63e 0787 113e
000000b0: 1d90 0b3f d98b b03e 54a9 9e3e 8d64 1e3e
000000c0: 16cc 1b3e 3c4c da3e 9b23 513f 26db 063d
000000d0: 794c f33e b1c2 833d 1a34 433e 2732 313e
000000e0: 73e6 653e f9c4 bb3e 3fdc d03e 86c6 943f
000000f0: e5ed 913e efd7 f63e db07 043f a556 c33e
00000100: 32cd 5a3f 931d 333f eab8 673e a3d6 ad3e
00000110: f035 163f 4dbc 5e3e 9373 6b3f f4e6 a53f
00000120: 29e4 cb3e 059c 0f3e 8b69 093f a453 8f3e
00000130: 4e1c 0e3f cb9e f33e 308c a43a 1163 e13e
00000140: fffd de3e 43c6 7f3c 33b1 333e 8e7f b03e
00000150: 1092 2f3f e8e9 053e 6cf7 3a3d 9f17 d53d
00000160: 9f88 433d 3037 823e d648 173f 93de a43f
00000170: 80b3 e73e 050c a73f a1e0 eb3d 0baf 8a3e
00000180: 9f23 933e 2822 b83e 15b1 d53e 5bef 063e
00000190: 9b01 853e 0f06 e93e 87b4 723e 5860 ae3e
000001a0: b40e 863f fa51 463e 9020 293f a395 523e
000001b0: 6dfa c03f 09ff 973e 6545 df3e 05b5 3e3f
000001c0: d27c cf3e 272a 343e f369 b93e 93a5 983e
000001d0: fcfe 603f 1179 6e3f cb6f 0140 a7c0 5f3e
000001e0: f252 233c 84ce be3c d3db db3e b3c9 b53e
000001f0: 33ce 5e3e 4967 3c3e 0f8f b53f 6b6f 413e
00000200: ef91 bb3e ff8e dd3e b40f 4e3d 9afd df3e
00000210: 15f8 533e 7356 603e 0d2c 803a 527d a03e
00000220: 1421 a43e da36 0a3e 5a6e 1d3f 0ffa b13e
00000230: 234a 4f3d 89f7 c93e 4f08 b73e dae5 853c
00000240: 8bf2 153e 56b0 d63e c5b3 ff3d f09e 3d3e
00000250: c8ff 0f3e 9f3a de3d 927c 623e cfe0 8b3f
00000260: 9fd7 0f3f 42dc 173f eb7c e63e 7abe c33e
00000270: faea 043f 0936 523f 3097 ca3e aefc 3a3f
00000280: 120e 013f 2ff1 1a3f 963d 0a3f 75c0 7f3f
00000290: 6583 ce3e ede3 8a3e 635a 053f f382 313f
000002a0: 9b32 5c3e 06d2 1a3e b3b3 103e d62d 0b3f
000002b0: cdda 873e b30d 223e 0b33 593d 2ed4 c93e
000002c0: 6f01 ad3e e387 7c3f 382b ae3e 96b0 823e
000002d0: 991a a73e b556 0f3f d42e de3e 02c5 bc3e
000002e0: 4a96 f53e c725 803e 7fb3 873e 8153 9c3e
000002f0: ba07 1a3f 23fb bf3c d0e3 f93d 3547 e03b
00000300: 100c a53e 1d41 313f dde7 0c3e aeaf 1e3f
00000310: 8a3a 823f 2364 f03e 0fb1 ca3e 3909 f43e
00000320: 3f7b 0e3e 4039 143e 70ba 6e3f 6db3 b73d
00000330: 37c6 d93e 8d83 833e b9c7 8f3e 1143 5c3e
00000340: c6e1 413e 6b73 9e3e 25d4 333f a6c4 683f
00000350: 97c2 4e3e 080f 7a3f 1f4e 2d3f 4f4e 253e
00000360: 2fa4 013e 1fe6 703f f1a5 b23e 48d8 3e3f
00000370: 3a7a 383f b32c cc3e d054 023f e53c 503c
00000380: aac9 2a3f 8949 143f 5921 763d 97e1 a93d
00000390: c74e 4f3e 32fc 713e 32ff b03d 9973 5e3e
000003a0: 3929 e43e 48b9 213e 52b8 bc3e 16ae b83e
000003b0: f254 f63d ea15 473f 61c4 e43d 8604 143e
000003c0: 836d b73e b091 d63d 39d0 823b cd7c b23e
000003d0: 4a09 313e 3e32 873f 2f62 e13e cfdc 1e3e
000003e0: 0f35 c53e 8719 3f3e f91b 6c3e 930e 223f
000003f0: b7f8 8c3e b1cd 223f 9029 893e 0d5f 8d3f
0.10528253 0.045620747 0.5808213 0.15283982 0.5075416 0.49985367 0.0012372099 0.12094978
0.10842661 0.18818453 0.020021033 0.31272587 0.17729329 0.04405201 0.9458491 0.24468239
0.6369748 0.03796474 0.53169733 1.837912 0.33120978 0.505513 0.24843955 0.51835126
1.3193339 0.48283646 0.047624078 0.21743838 0.23211363 0.58512366 0.6491035 0.1148663
0.4736195 0.17647561 0.120440386 0.62215686 0.1452342 0.12004728 0.25138152 0.48090905
0.22254433 0.19280922 0.32557166 0.14211665 0.54516774 0.34481695 0.30988562 0.15468045
0.15214571 0.42636287 0.81694955 0.03292384 0.47519282 0.06433619 0.19062844 0.17304288
0.2245119 0.36673716 0.40793034 1.1623085 0.28501812 0.4821162 0.51574486 0.38152042
0.85469353 0.69967 0.22629133 0.33952817 0.5867605 0.21751519 0.9197323 1.2961106
0.3982251 0.1402436 0.5367667 0.279935 0.5551194 0.47582087 0.0012553986 0.44020894
0.4355316 0.015611234 0.17548065 0.34472317 0.6858225 0.1307751 0.045646116 0.10404896
0.047737714 0.2543273 0.59095514 1.2880424 0.45254135 1.3050543 0.11517454 0.27086672
0.28738114 0.3596356 0.41736665 0.13177244 0.25977787 0.45512435 0.23701678 0.3405788
1.0473237 0.19367209 0.6606531 0.20564894 1.5076424 0.29686764 0.4360763 0.74494964
0.40524918 0.17594205 0.36213645 0.29813823 0.87889075 0.9315348 2.0224483 0.21850835
0.009968506 0.023291834 0.4294115 0.35505447 0.21758346 0.18398775 1.4184283 0.18890159
0.36634776 0.4327316 0.050307944 0.4374817 0.20700105 0.21907978 0.0009778753 0.31345612
0.32056487 0.13497487 0.6149651 0.34761092 0.05060781 0.39446667 0.35748526 0.016344953
0.14643304 0.4193141 0.1248546 0.18517661 0.14062417 0.10851025 0.22117832 1.0927981
0.56188387 0.5932046 0.4501718 0.3823126 0.51921046 0.821137 0.39568472 0.7304181
0.50412095 0.60524267 0.5400022 0.9990304 0.4033462 0.2712702 0.52091044 0.6934044
0.2150368 0.1511918 0.1413105 0.54366815 0.2653412 0.15825538 0.053027194 0.39419693
0.33790156 0.98644847 0.34017348 0.2552535 0.3263748 0.5599168 0.43395102 0.36869055
0.47966224 0.25028822 0.26504132 0.30532458 0.6016804 0.023435181 0.12201655 0.006844426
0.32235765 0.6923998 0.13760324 0.61986816 1.0174115 0.46951398 0.3958821 0.47663286
0.13914202 0.14474964 0.9325323 0.089697696 0.42534038 0.25686303 0.28082064 0.21509959
0.18933782 0.30947432 0.7024558 0.9092506 0.20191418 0.97679186 0.6769733 0.16143154
0.12660287 0.94101137 0.34892228 0.7454877 0.720615 0.39877853 0.50910664 0.012709831
0.66713965 0.57924706 0.060090397 0.08294981 0.20244895 0.23631361 0.08642425 0.21723785
0.445627 0.15793335 0.36859375 0.36070317 0.12027921 0.77767813 0.11170269 0.1445485
0.35825738 0.104770064 0.003992107 0.3486084 0.172887 1.0562208 0.4402022 0.1551392
0.38517043 0.18662082 0.23057546 0.6330349 0.27533504 0.6359511 0.26789522 1.1044632

net.3.weight f4 [256, 512]
00000000: 994e f7bb 2e62 393d cb28 b7bd 9a5d 8c3d
00000010: 6a27 c4bc 3068 43bd 2101 67bc 8cdc 5fbe
00000020: 020a c63d e4d1 e03d b14e debb 1143 d93c
00000030: 6a9a 2cbe 8972 a6bc b902 91bd 8dec c83c
00000040: 9fc7 2ebe fdcf 3fbd fda9 053d 3b8c bc39
00000050: baf3 b53d dbc4 b5bd b3fb 2d3c ad32 a1bc
00000060: 91a1 2bbd 4c0e 34bc e3c4 edbc b68f 0dbe
00000070: 80d6 71bd 3dfd 21be 0a8a 7c3d 2ca2 c43c
00000080: 7e00 d5bc 6864 97bd 3bb1 bebe 599c 0ebe
00000090: ed2a c13d ad48 133d 458c acbd 1992 9b3c
000000a0: a0e4 c8bc 375e 563d 3b2b 01bd 8bc4 10bb
000000b0: 51f9 b13c d217 67bd 9805 4bbd 38c4 bb3c
000000c0: 9ecc a6bd 4e36 9d3b f1fe d4bd 6590 3abd
000000d0: 75e1 14bd 430a f13d 92a3 55bd fff9 99bc
000000e0: 318f 90bd 2cbc 4e3c e47a 053d 1c92 34be
000000f0: 9c98 e13c 184a 2bbd daba 9d3c fb31 a4bd
00000100: f229 bfbc 724e 29bc 3583 05be 2aa8 993d
00000110: 2d53 adba 726e 2cbd 563b c8bc dcb8 9d3d
00000120: 5b4d 5abd 7811 93bd bf40 79be f417 b63b
00000130: a6b8 a9bd 04ce 0f3d 75cb adbe ef67 07bd
00000140: 02fa 28bd 84df 583d f29a 323d 1ecb b6bd
00000150: 3187 1d3d 76fb abbc 4ed1 43be a77c 14bc
00000160: 3991 e73d 946d 8bbc a2c1 9abd 36dd 06be
00000170: 8d90 1ebe 01e9 31bd 9e91 d0bd f1b5 24be
00000180: 1978 bc3c 06fb de3c 1196 e5bd a55b 32be
00000190: 8f34 bcbd 3800 7abd 9b72 8c3a f4ac 4cbe
000001a0: 54b1 48bc 8bb3 09bb 6862 873c f13f a5bd
000001b0: 9da9 12bd 18c7 01bd 9152 d3bd 2477 32bd
000001c0: 32a0 663d abe5 563b 03ca febd 052c 3dbd
000001d0: 34f7 f6bd f0df dcbd d25d 7b3a 57b1 f83d
000001e0: cadf aebe 3bad ab3d 7cb0 5d3c 73a4 243a
000001f0: 8914 513d 0f7c 2bbe 4498 9f3c f846 11be
00000200: e52d 4abd 8d82 febc 9458 48bc 0400 b83c
00000210: 61cc b5bd 5d13 b53d a73b 1abd 0938 0abe
00000220: e81c 44bd 321f b7bc 4844 62be 0723 c2bd
00000230: c47b fc3d 3796 68bd 9064 123e e934 8abd
00000240: 0b6e 2dbe 2787 16bd 9610 453d 80c9 1a3e
00000250: 7f2f 28bc 8715 c83d 1ab5 9ebd 8a8d 92bd
00000260: 03a2 51bd 94ca f43c b7c8 083d 5e76 d0bc
00000270: b2a2 033c a7f9 92bd 4086 e9bd 774d 22bc
00000280: 8630 5abc a48b 5abc 888a d5bc 6293 c7bd
00000290: 3f3d a63c c7e3 27be 8cf8 0ebc 89e9 b9bd
000002a0: b54e 5d3c 1800 2bbc 7cae aebe 3c07 8cbd
000002b0: 1941 d3bc 38c6 90bd 849a 51be aba1 863c
000002c0: 3b77 8ebd 13ca d53c 6cbd b43c 8595 a53d
000002d0: d6ef 07be fb22 ddbd 9543 acbc aaf4 653d
000002e0: b5de 05be 9997 01be 7f83 95bd 1ce1 febd
000002f0: e611 6ebc 60b9 e03d 8863 02be 2f93 e1bd
00000300: 1efc 6cbd 1ef9 cdbd 04a2 5cbd 5ba4 82bd
00000310: 2507 d7b9 a107 27bd 51c7 c83c 4c9c b5bd
00000320: bd68 3bbe 1d38 813d b950 af3c 0dd5 fdbd
00000330: 11ac ffbc ffad 98bc 2786 013e 0d1e 453e
00000340: 9a3b 2d3c d20f 5ebd 8e11 f7bd 3fd3 d8bb
00000350: 3ad2 b73c 8039 0ebe a46a 723d 92d7 6fbd
00000360: 3448 e83c e66b 05be 3350 2fbd 7b3e 56bd
00000370: 65d7 29bd e40b 1a3e 0a01 55bd 61de 5fbb
00000380: bcc3 fb3c 36e2 04bc 0f75 98bd 5117 ef3d
00000390: 239d e9bc 4bed 82bd 8997 88be 581d 31be
000003a0: 78ee be3d e566 4d3d abf7 85bd cb8c 07bd
000003b0: 49c5 0e3d c0f0 55bc 3250 933d 5aed a8ba
000003c0: 47ad d13c 29eb a53c 9ac3 6b3d 3f93 ba3d
000003d0: 55ed 3dbd 7757 13be 91cc e9bd bbf6 b2bd
000003e0: 317a 02be f3e3 76bd 9354 e3bd 2fc7 d7bc
000003f0: 6746 1b3e 09d4 acbc 3e9a 983d bd52 ba3b
-0.0075472114 0.045259647 -0.089433275 0.068537906 -0.023944575 -0.047706783 -0.01409939 -0.21861476
0.096698776 0.109775335 -0.006784283 0.026521238 -0.1685578 -0.020318286 -0.070805974 0.024526859
-0.17068337 -0.046829212 0.032632817 0.00035962634 0.08884378 -0.08875438 0.010619092 -0.019677484
-0.04190213 -0.010989737 -0.029024547 -0.13824353 -0.059042454 -0.15819259 0.06165508 0.02400311
-0.026001211 -0.07392198 -0.3724459 -0.1392683 0.094320156 0.03595798 -0.08425192 0.018990563
-0.02452308 0.052335944 -0.03153537 -0.0022089805 0.021725329 -0.0564192 -0.04956588 0.022920713
-0.081444964 0.0047977334 -0.10400189 -0.04554786 -0.036347825 0.117695354 -0.052157946 -0.018795965
-0.070585616 0.012618106 0.0325879 -0.17633861 0.02753859 -0.04181871 0.019254137 -0.080173455
-0.02333543 -0.010333644 -0.13038333 0.07502778 -0.0013223641 -0.042097516 -0.024442356 0.07701275
-0.05329643 -0.07181066 -0.24341105 0.0055570547 -0.08287172 0.03510858 -0.33944288 -0.033058103
-0.04125405 0.052947536 0.0436048 -0.0892546 0.038459007 -0.02099393 -0.19122812 -0.009062923
0.11306996 -0.017020024 -0.07556464 -0.13170323 -0.15484829 -0.0434351 -0.10184024 -0.1608503
0.023006486 0.027219307 -0.112102635 -0.17417772 -0.09189712 -0.061035365 0.0010715307 -0.19987851
-0.01224931 -0.0021011557 0.016526416 -0.080688365 -0.035806287 -0.03168401 -0.10318483 -0.043570653
0.056305118 0.0032790701 -0.124408744 -0.04618456 -0.12058869 -0.107849 0.00095888705 0.121432
-0.34155113 0.083826505 0.013530847 0.00062806084 0.051044974 -0.16746543 0.019481786 -0.14187229
-0.049360175 -0.03106811 -0.01222815 0.022460945 -0.08876873 0.08841584 -0.037654545 -0.13497938
-0.04787913 -0.022353742 -0.2209636 -0.09479337 0.12328294 -0.05678388 0.14296174 -0.06748373
-0.1693651 -0.036749985 0.04811152 0.15115929 -0.01026523 0.09769731 -0.07749386 -0.07155903
-0.051179897 0.029881753 0.03339454 -0.025447067 0.008034395 -0.07176524 -0.11402559 -0.009906164
-0.013317233 -0.013338957 -0.026067033 -0.09744908 0.020292876 -0.16395484 -0.00872625 -0.090777464
0.013507535 -0.010437034 -0.34117496 -0.06837317 -0.025787877 -0.07069057 -0.204691 0.016434511
-0.06956335 0.026097333 0.02206298 0.08085159 -0.13275084 -0.107976876 -0.02102832 0.056141533
-0.13073237 -0.12655486 -0.073004715 -0.1244528 -0.0145306345 0.109728575 -0.1273328 -0.11014401
-0.057857625 -0.10057281 -0.053865448 -0.063790046 -0.0004101332 -0.04077876 0.024509104 -0.08867702
-0.18301673 0.06309531 0.021400796 -0.12394152 -0.031209977 -0.018637655 0.12648831 0.19249745
0.010573292 -0.054214306 -0.12063895 -0.0066169794 0.022439111 -0.13889122 0.05918373 -0.058555193
0.028354742 -0.13029441 -0.042801093 -0.05230568 -0.04146518 0.15043598 -0.052002944 -0.0034159648
0.030732982 -0.0081105735 -0.07444202 0.11674369 -0.028517311 -0.06392916 -0.26678112 -0.1729635
0.09322828 0.050146956 -0.065413795 -0.033093255 0.034856115 -0.013057888 0.071930304 -0.0012888119
0.02559532 0.020253735 0.057559587 0.09110116 -0.046368916 -0.14388834 -0.11415971 -0.08738466
-0.12741925 -0.060275983 -0.111001156 -0.026340095 0.15163575 -0.0210972 0.07451294 0.0056861327

net.3.bias f4 [256]
00000000: c202 e2bc 58c3 30be 7bf8 48be a5f8 0fbe
00000010: 9317 b53c e457 51be 888f 093e bc2b 45be
00000020: 6de2 59be f040 48bd 8a9c cc3d 0c7d 34be
00000030: 6984 a0be 64f6 49be 4d24 b2bd 9069 223e
00000040: 77e6 51be 92d5 36be 86dd 74be 4351 88be
00000050: 227c 86be 0da9 87bd 8bf6 5cbe 6c5f 8ebe
00000060: e6c9 703d 297e b4be 1204 e03c c8f6 b1be
00000070: a187 debe 064a d7bd 4ba4 0abe 9077 76be
00000080: c6eb 64be eeee 70be 1e9c 88be 3e10 64be
00000090: deb2 80be 7130 aabd 7e9d 84be e038 adbd
000000a0: 31d5 4fbb 84b1 45be c216 6abd bcf9 cbbd
000000b0: 101b 89be 9d55 2fbd 67e7 74be a075 0abe
000000c0: afc8 4ebe 6f4b abbe ba09 39be 5655 15be
000000d0: 0b86 15be 9fb9 14be d450 7fbe 3827 dbbe
000000e0: 3405 b03d 80cf f9bd fb1e 163d 37e9 83be
000000f0: 974e fcbd 7b72 a4be c84d 84bc a880 2fbe
00000100: 91c5 fb3c 541b f7bd a7de 1bbe 5672 823d
00000110: 3573 93bd 6f55 bdbe 71a0 46be 3c08 87be
00000120: 78a6 83bc 9f27 143d 6406 53be 8951 4abe
00000130: 15c4 d33d a7c1 3cbe 7256 50be d670 13be
00000140: 9891 34be baf9 26be 5231 c2bd 1a49 4abe
00000150: cdc5 3dbe c69b 1dbe f6b0 81be 9d7a 3abd
00000160: 1a9f 70be 7961 bebd 6d26 63be e11b 56be
00000170: 97d0 d6bd 2c08 93be f45a 0abe fefe bfbd
00000180: fdfb 61be 0056 86be b5b5 82be 44a7 25bd
00000190: ab1b 64be c33a 33be f5e7 3f3d 041b 58be
000001a0: 788a 12be 15b0 dcbd 3532 8cbe 2d6b 06be
000001b0: f522 29be d524 ebbd 3661 6cbd 22db 8dbd
000001c0: 2575 7abd e484 f9bd ab5b 4ebe 78fd 3ebe
000001d0: 55e7 8bbe 3ea8 86be 7363 1abe 33d9 78be
000001e0: ec80 2dbe 6852 84be 4d93 47be 5167 2ebd
000001f0: aafd 0abe 3055 5bbe b1f4 723c 2bed 173e
00000200: 578a a5be bcac 833d 6612 acbe a991 54bd
00000210: ee35 28be e52e 57be ac4b 84be e879 9abd
00000220: e3f3 363e 5e2a 6fbe 0a14 8bbe 7814 91be
00000230: fcb8 5fbe c293 55be 30f4 3dbc a8a2 1ebe
00000240: 2968 85be b3f7 42bc 104f dabd 5af7 09be
00000250: 47c0 683e e6f2 c0bd 5d89 2abe 2e37 5dbe
00000260: ea15 00be de66 e33c 9332 e1bd 9fc0 fdbd
00000270: b34f e8bd cc9b d9bc 213d 8cbe 2f56 adbd
00000280: 11bc ddbd 13be 24bd 033d 81bd 5470 1cbe
00000290: 2981 62be e855 02be 78d2 78bd 4b5f 10be
000002a0: 5f26 3abe f597 a1be 2beb 62be 9159 1abc
000002b0: 4b88 62be 5470 26be 1ac7 0bbe e9f9 2ebe
000002c0: da73 85be b598 72be e01c 22be 67b0 31be
000002d0: 1f90 f0be 9c45 6bbe be30 f5bd 5c67 47be
000002e0: add4 9ebe 5eb0 edbd d54d 89be b7fb d1be
000002f0: f992 11be 8718 21be e1e8 93bd 5ea3 7dbe
00000300: 25fd 8abe 4895 03be f62d e2bc 1b5c 41bd
00000310: b989 9ebd 01f4 72be f4b9 11be b01d 1cbe
00000320: c6d0 84be 81d1 80be f100 1fbe 1a2d 1fbe
00000330: 496d 3dbe 1615 67be 708e 24be 63c4 f0bd
00000340: 4fd2 4dbe e50b 94bd 39d3 c4bd 5df8 8e3d
00000350: ddf8 88be 7f1d 41be c58c 91bd 5e34 0ebf
00000360: ccb9 eebb aea7 06be e541 053d 2235 d3bd
00000370: a33d b2be 6f62 51bd 7a74 7ebe d4f4 1dbe
00000380: fb12 5dbe f41a 25be a4e3 b3be 84da d3bd
00000390: 5402 82bc 471b 6cbe 007a a6be 41b0 f8bd
000003a0: cb14 4dbe 74ca 90be a722 92be 3902 01bf
000003b0: 2d33 e1bd 11e1 2abe 9ea0 9ebe 4e89 40be
000003c0: 607d 37bd 4f0c 61bd d311 95be 9611 19be
000003d0: 85b3 8cbe 19c9 6abe 0ebe 71bd 0f4b 12be
000003e0: 61c8 253d 0c65 3bbe f212 51be cbed df3c
000003f0: ef77 22be 4b8e 93bd e60e 0dbe 1a6a 4d3d
-0.027589206 -0.17262018 -0.19626038 -0.14059694 0.022105968 -0.20443684 0.13433659 -0.19254965
-0.21277781 -0.048890054 0.09990795 -0.17625827 -0.3135102 -0.19722897 -0.0869833 0.15860581
-0.20498072 -0.17854908 -0.2391263 -0.26624498 -0.2626658 -0.06624041 -0.21578424 -0.27807176
0.058786295 -0.35252503 0.02734569 -0.34758592 -0.43462852 -0.10512166 -0.13539235 -0.24069047
-0.22355565 -0.23528644 -0.26681608 -0.22271821 -0.25136465 -0.08310021 -0.25901407 -0.08458114
-0.0031712765 -0.19305998 -0.05715061 -0.099597424 -0.2677846 -0.042806257 -0.23916398 -0.13521433
-0.20193742 -0.3345599 -0.18070117 -0.14583334 -0.14601915 -0.14523934 -0.24933177 -0.4280336
0.085947424 -0.121977806 0.03665064 -0.25763866 -0.12319677 -0.32118592 -0.01615037 -0.17138922
0.030733855 -0.12065759 -0.15221654 0.06369464 -0.07199708 -0.36979243 -0.19397141 -0.2637347
-0.01607059 0.036170598 -0.20607907 -0.19757666 0.10340134 -0.18433248 -0.20345476 -0.14398512
-0.17633665 -0.163062 -0.09482063 -0.19754449 -0.18532486 -0.15391454 -0.25330323 -0.04552709
-0.23498192 -0.09295935 -0.22182627 -0.20909072 -0.10489004 -0.28717172 -0.13511258 -0.09374808
-0.22068782 -0.26237488 -0.25529256 -0.04044272 -0.2227618 -0.17502885 0.04685207 -0.21104056
-0.14310634 -0.107757725 -0.27382055 -0.13126822 -0.16517241 -0.114816345 -0.057709895 -0.06926562
-0.061146874 -0.1218355 -0.20152156 -0.18651378 -0.2732493 -0.26300234 -0.15077 -0.24301605
-0.16943711 -0.2584412 -0.19489785 -0.042579 -0.13573328 -0.21419215 0.014828847 0.14836566
-0.32332107 0.06429431 -0.33607787 -0.051896725 -0.16426823 -0.21013983 -0.25838983 -0.07542783
0.17866473 -0.23356006 -0.27163726 -0.2833593 -0.2184791 -0.20857146 -0.011593863 -0.15491736
-0.2605603 -0.011899876 -0.10659611 -0.13473263 0.22729598 -0.09421329 -0.16653962 -0.2160308
-0.1250836 0.027759012 -0.109959744 -0.12390255 -0.113433264 -0.026563548 -0.27390388 -0.08463704
-0.108268864 -0.04022033 -0.06310465 -0.15277225 -0.22119583 -0.12728083 -0.060747594 -0.14098851
-0.181787 -0.31561247 -0.22160022 -0.009420768 -0.22122304 -0.16253787 -0.1365017 -0.1708752
-0.2606495 -0.23691066 -0.15831327 -0.17352448 -0.46984956 -0.22975773 -0.119721875 -0.19473022
-0.31021634 -0.11605905 -0.26817194 -0.41012356 -0.14216222 -0.15732013 -0.072221525 -0.24769351
-0.2714626 -0.12849915 -0.027609807 -0.04720698 -0.07741112 -0.23725893 -0.14231092 -0.152457
-0.25940531 -0.2515984 -0.15527703 -0.15544549 -0.1849872 -0.22566637 -0.1606996 -0.11756208
-0.20099758 -0.07228831 -0.096106 0.06980965 -0.26752368 -0.18858908 -0.07106928 -0.55548656
-0.0072853323 -0.13149902 0.032533545 -0.10312869 -0.3481265 -0.051119264 -0.2484912 -0.15425426
-0.21589272 -0.16123563 -0.35134614 -0.10344413 -0.01587025 -0.2305728 -0.32514954 -0.12142993
-0.20027463 -0.2827946 -0.28542063 -0.50394017 -0.10996089 -0.16687419 -0.30981916 -0.18802378
-0.0447973 -0.05494338 -0.2911516 -0.14948115 -0.27480713 -0.22928275 -0.05901914 -0.14286445
0.0404743 -0.18300265 -0.20417383 0.027335068 -0.15866064 -0.072048746 -0.13775215 0.050150014
